m.tflite (tflite, 823280 bytes, 8 tensors)

arith.constant3 f4 [23, 128]
000000 d2 bb 63 be 47 ea 05 bf f9 63 be 3e fe 18 a6 3f
       -0.22239617 -0.52310604 0.37185648 1.2976377
000010 d3 6a db 3e a2 58 60 3f d0 cc ea 3e e6 a5 95 3e
       0.42854938 0.8763524 0.45859385 0.29228133
000020 93 11 39 bf 95 f9 9a 3e d6 17 04 3f e2 20 22 3f
       -0.7229244 0.3026854 0.5159887 0.63331425
000030 71 42 08 bf 87 52 1a 3f 3a da 6a 3e f5 6e b7 3e
       -0.5322638 0.60282177 0.2293481 0.3582684
000040 81 71 98 3d 6c 5b 12 3e 67 10 b7 3e 81 30 fd 3e
       0.07443524 0.14292687 0.35754701 0.49451068
000050 3c 1c 5e be 8d 1a 6a bf a3 14 19 3f 71 7f 27 3e
       -0.21690458 -0.91446763 0.59797114 0.16357209
000060 64 d7 96 3e 2a d7 ed be c0 20 cf be bd 42 01 3f
       0.29461205 -0.4645322 -0.40454674 0.5049246
000070 0d eb 68 3e e3 41 5b 3f 9a 38 43 bf fd 89 00 bf
       0.22745915 0.8564741 -0.7625824 -0.50210553
000080 dc 5a f2 3e d1 73 61 be ee f2 72 be 40 01 2d 3f
       0.47334945 -0.22016837 -0.23725483 0.6758003
000090 db b8 79 3d a0 d1 71 3d b5 58 8b 3e b4 ae 3b 3e
       0.060967308 0.059037805 0.27216116 0.18328363
0000a0 ed d8 7b bf 6d d8 b4 bb 25 9a 21 bf ff fd 65 be
       -0.9837788 -0.005518964 -0.6312583 -0.22460173
0000b0 23 81 a5 bd 3f 52 8e 3e 2d d7 7f 3e 94 cb f1 3e
       -0.080812715 0.27797124 0.24984427 0.4722563
0000c0 20 5b 21 3f e1 75 c3 3e 42 30 36 bf 88 89 cc 3e
       0.6302967 0.38175872 -0.71167386 0.39948678
0000d0 9b e8 e1 be d8 ec a5 3e 00 23 43 bf 95 c6 07 bf
       -0.44122776 0.3240726 -0.7622528 -0.5303739
0000e0 14 b8 7b 3f fc 18 c2 3e c1 1f 2c be 82 d0 04 be
       0.98327756 0.37909687 -0.16808988 -0.12970164
0000f0 47 61 bd 3e 84 a2 02 bf 2f c7 7f be eb b3 54 3e
       0.3698828 -0.5102923 -0.24978326 0.20771758
000100 d1 b6 39 be 23 59 48 bd c0 b5 fd be ae b8 8a 3e
       -0.18136145 -0.048913132 -0.49552727 0.27094024
000110 3b 4a 31 bf 8c 3b 57 bf f1 10 eb 3d a3 b3 6a bf
       -0.6925389 -0.84075236 0.11477841 -0.91680354
000120 b6 0b 3f 3e f7 c4 90 be 83 08 2d 3e 8b b6 3c 3f
       0.18656811 -0.28275272 0.16897778 0.7371604
000130 9b e4 60 be 21 bf 9e be bd 78 85 3e 20 5b 37 bf
       -0.21962206 -0.31005195 0.26068678 -0.7162342
000140 f8 da 5d be b6 24 3d bf 4e 66 31 3f 97 55 d1 3e
       -0.21665561 -0.7388414 0.6929673 0.40885612
000150 1d 3e 3a 3f be fe 10 bf b1 e3 78 bf 3e 33 d2 3c
       0.7275103 -0.56638706 -0.9722243 0.0256592
000160 1f f3 ad be 64 66 85 3e 50 ec d8 be ed 91 8e bd
       -0.3397455 0.2605468 -0.42367792 -0.06961427
000170 26 36 a7 be 6a ba f5 3e 32 5a 00 3f 11 49 7c 3e
       -0.326585 0.47993785 0.5013763 0.24637248
000180 8d 5e bc 3e a0 47 30 3e 45 64 ba 3e 02 11 53 3d
       0.36790887 0.17214823 0.36404625 0.05152989
000190 b7 94 d2 bd f0 1e 69 bf 8c ff 93 3e 11 cc 68 be
       -0.10282271 -0.9106283 0.28905904 -0.22734095
0001a0 b0 a0 4a be 7d 13 b9 be ff e1 90 3d 02 dd b9 3e
       -0.1978786 -0.3614768 0.07074355 0.36301428
0001b0 fc a4 5e bd 6a eb 10 bf 02 96 7a bd a1 b1 e2 bd
       -0.05435656 -0.56609213 -0.061178215 -0.11069036
0001c0 01 a1 89 be a5 cf 97 3e 82 b1 aa 3e 29 d4 b3 3e
       -0.2688065 0.29650608 0.33338553 0.35122803
0001d0 0e 5a d4 3e 5c 3a 4e bf 43 f6 23 3f f5 ba 28 be
       0.41474956 -0.805578 0.6404764 -0.16477568
0001e0 f2 79 28 bd e4 d1 d5 be 31 2b 3e 3e 36 0d 89 3f
       -0.04113192 -0.41761696 0.18571164 1.0707157
0001f0 8b b8 8a 3d 20 31 42 bf bc 40 75 bf 1d 29 87 bf
       0.0677348 -0.7585621 -0.958019 -1.0559422
000200 9d 3b 0e 3f f6 4b 5d 3e e5 e6 45 3e c7 89 ac 3f
       0.5555971 0.21611008 0.1932636 1.3479546
000210 bb d1 c1 be 5c 74 a4 be f6 93 4f 3e 23 e5 8d 3e
       -0.37855324 -0.32120025 0.20271286 0.2771388
000220 b2 ad ad be 7f 35 ad 3e 89 13 0a 3f 75 18 f1 be
       -0.33921582 0.33829877 0.5393606 -0.47088972
000230 9c 33 16 3f 4c 27 be be 65 1f 08 bf 96 2b d3 3e
       0.586725 -0.37139356 -0.53172904 0.4124419
000240 63 f4 99 be 3b d4 d0 3e b8 45 9c be 35 ea 3b 3f
       -0.30069265 0.4078692 -0.3052194 0.73404247
000250 18 e1 94 bd 79 32 a9 be 9b c2 d0 3e 5a 84 21 bf
       -0.07269496 -0.3304632 0.40773472 -0.6309258
000260 55 17 cb 3e 0b 0f 08 bf 06 19 e2 be d1 47 24 be
       0.39666238 -0.53147954 -0.44159716 -0.16043021
000270 20 48 39 bd b6 28 cf be 93 9c 6b be 2f 20 8b be
       -0.0452348 -0.40460747 -0.23008947 -0.27172992
000280 77 67 39 3d fa 34 05 be 8c 28 8c bf 86 59 40 3f
       0.045264687 -0.1300849 -1.0949874 0.751366
000290 da 9b a0 be 68 a9 e5 3e 19 31 ef be f0 73 b5 be
       -0.31368905 0.4485581 -0.46717146 -0.35440016
0002a0 11 53 e9 3e ce 14 d5 3d e4 10 2e bf 24 d2 dc be
       0.45571187 0.10404359 -0.67994523 -0.43129075
0002b0 f2 0f bb 3e 15 4e 17 be 2c 82 a0 3d 66 2f 3a be
       0.36535603 -0.1477588 0.07837328 -0.18182144
0002c0 fd ae 58 3e b0 ba bc 3d a4 0e 7d bf 7c 45 37 bf
       0.21160503 0.09215295 -0.98850465 -0.715904
0002d0 1c 66 ea 3e cd 4a 75 3f 3a 75 6f bf cb 20 a6 3e
       0.45781028 0.9581726 -0.9353825 0.32446894
0002e0 f7 bd c9 be e4 e5 d9 3e 15 2d 5f be 9a ed 98 3e
       -0.39402744 0.42558205 -0.21794541 0.29868776
0002f0 09 8e 8d be d1 a9 27 3f 4f 5d 8d 3e 5c 5c b3 3c
       -0.27647427 0.65493494 0.2761025 0.021894626
000300 90 74 35 3f 3c 08 e4 bc c0 64 07 bf f0 2a 92 be
       0.70880985 -0.027835958 -0.5288811 -0.28548384
000310 17 fc 0a 3f 3e cb 10 3f 9d a6 cd 3e 2e f1 cb be
       0.5429091 0.5656012 0.40166178 -0.39832443
000320 22 a4 5f 3e 33 7e 03 bf ef 0f 2e bf 52 3d 43 bf
       0.21839955 -0.5136444 -0.6799306 -0.7626544
000330 c0 17 10 3f c2 a8 36 bf 95 92 f1 be 48 14 0e be
       0.5628624 -0.71351254 -0.47182146 -0.13874924
000340 71 24 86 bf aa ce 44 3e 82 6b c8 be d8 57 c0 be
       -1.0479871 0.19219461 -0.39144522 -0.3756702
000350 26 26 96 be 59 25 17 3d d9 47 e2 3d 49 eb 17 3f
       -0.2932598 0.036900852 0.1104886 0.5934339
000360 5e 2c c3 3e 4d e9 ee 3e c7 0f 00 bf e0 cd 48 3d
       0.38119787 0.4666237 -0.50024074 0.049024463
000370 67 7c fc be e2 e4 1f 3f 66 8b ac bd 91 6f 85 3f
       -0.4931366 0.6245862 -0.08425026 1.0424672
000380 68 48 92 be 37 67 c4 3e 9b 7d 1a 3e be 98 5f be
       -0.28570867 0.38359997 0.15086977 -0.2183561
000390 75 9b 39 bf 67 9b cb 3e 59 30 8b be ce 9c fd bd
       -0.72502834 0.39767 -0.27185324 -0.12383424
0003a0 e0 35 a7 3e 1a a8 35 3e 7d a4 60 3e 77 c7 88 3e
       0.3265829 0.17739907 0.21937747 0.2671468
0003b0 1b c5 3f 3e 40 96 52 3d 68 4e 00 3e d6 11 12 bf
       0.18727534 0.05141282 0.1252991 -0.57058465
0003c0 c3 f0 23 3f f8 57 56 3e da 31 83 3e 3d c8 2f bf
       0.6403925 0.20931995 0.2562397 -0.68664914
0003d0 95 ac 4e bf 4b fa 60 bd 55 9b 36 3d 08 63 3e 3e
       -0.8073209 -0.054926198 0.04458173 0.18592465
0003e0 80 32 96 3b b0 9f 9b bb 1f ec 4d bf fa d9 05 bf
       0.004583657 -0.004749261 -0.8043842 -0.5228573
0003f0 a5 40 0c be 57 0d 36 3e e7 60 eb be 78 66 bf 3e
       -0.13696535 0.17778526 -0.45972368 0.37382865

arith.constant4 f4 [23]
000000 4d 3f 0c be c6 fd 82 be c7 41 9e bd 0e 97 9e be
       -0.13696022 -0.2558424 -0.0772739 -0.3097462
000010 8c 12 a4 3d 84 a3 d3 3f b6 27 1f bf 33 36 93 3c
       0.0801135 1.6534276 -0.6216997 0.01797018
000020 93 77 a8 3d 84 84 16 bf c8 1e 2e 3d 5a 1b 2c 3e
       0.08225932 -0.5879595 0.042509824 0.16807309
000030 77 f9 97 be f6 d4 9d be 01 64 87 be aa a9 b1 bb
       -0.29682514 -0.3082654 -0.26443484 -0.005421837
000040 32 cb c9 be ac c7 b0 be a4 65 7c 3e 4f 7f 61 3d
       -0.39412838 -0.34527338 0.24648148 0.05505305
000050 ff 72 8e 3d 02 1c f6 bd 7e 75 8e 3e
       0.069555275 -0.12017061 0.27824014

arith.constant16 f4 [512, 1]
000000 58 d8 7a be 79 30 8f be 9a ef f6 3d a7 64 d7 3d
       -0.24496591 -0.2796667 0.12057419 0.10517245
000010 77 f4 0a bc e0 81 b0 bc a2 0b ba bd 07 2f 35 3e
       -0.0084811365 -0.021546304 -0.0908425 0.17693721
000020 ee 52 8a bd d2 bc 9f be 34 71 00 3e 87 d8 47 3d
       -0.06754099 -0.31198746 0.12543184 0.04879048
000030 f0 83 17 bd e8 19 00 bf e9 31 5a be 4c d0 a2 3e
       -0.03699106 -0.5003953 -0.21308102 0.31799543
000040 c3 d1 13 bf db c4 d5 3d db 68 77 bf 77 02 88 be
       -0.57741946 0.10437938 -0.9664437 -0.2656438
000050 4c 8a a9 bf 93 f3 28 bf 79 f5 03 be 34 47 da 3d
       -1.324533 -0.65996665 -0.12886609 0.10658112
000060 c2 4c 8b be 1d 5d 61 be 64 3e a1 be ad 4d 7d be
       -0.27207 -0.22008176 -0.31492913 -0.24736662
000070 ea c5 17 3e 9e 7c b6 3e 93 48 8b be 26 56 5d 3e
       0.14821592 0.3564195 -0.27203807 0.21614894
000080 3e 46 0c 3f 9b 02 74 3e e5 2e 14 bf 10 f8 8e be
       0.5479468 0.23829119 -0.57884055 -0.27923632
000090 41 c3 45 bd 34 1f b5 3d a8 0e 80 be 5c 65 11 be
       -0.04828191 0.08843842 -0.25011182 -0.14198822
0000a0 e0 57 92 3d b6 8e e3 bd de b7 34 3e fc 0f ed 3d
       0.07145667 -0.11111204 0.17648265 0.115753144
0000b0 74 da dd bd e7 ad 83 3e 7b 29 70 bd 7e bd 9b bf
       -0.10832682 0.25718614 -0.05863331 -1.2167203
0000c0 c2 94 33 be d1 41 00 bd 2f 91 36 bd 46 87 91 bd
       -0.17537215 -0.031312767 -0.04457205 -0.071058795
0000d0 9c 2d 2f bd 4b d8 d3 bc 1b dc 3e 3e a3 83 47 be
       -0.042768106 -0.025859972 0.18638651 -0.19483809
0000e0 6f b4 ce bb 89 ad fb 3d ee 87 bf be 82 62 44 be
       -0.0063081305 0.122889586 -0.37408394 -0.19178203
0000f0 be 23 2e 3e 71 73 b5 3d b8 ff a4 3c e5 78 87 bd
       0.17005822 0.08859909 0.020141467 -0.06614856
000100 59 96 03 bf c3 45 b8 bd b0 a0 8b be 65 43 35 3e
       -0.5140129 -0.08997681 -0.27271032 0.1770149
000110 d7 94 cf be 75 35 c0 bd 94 96 0c bf e2 77 d3 be
       -0.40543243 -0.09385196 -0.54917264 -0.413024
000120 8b 7b b4 be d9 a4 cb be 5a 9a 0a 3e 2b 44 4f 3e
       -0.35250506 -0.39774206 0.13535443 0.20240848
000130 1e 69 82 be 78 c2 79 bd 79 c6 21 3d d6 c0 32 3e
       -0.25470823 -0.060976475 0.03949592 0.17456374
000140 15 48 10 be 35 68 01 bf 3c 8c cb bc da be cb bc
       -0.14089997 -0.5054963 -0.024847142 -0.024871279
000150 0e aa 93 3e a5 64 18 3f c9 db 93 be 38 56 20 bd
       0.2884068 0.5952857 -0.2887862 -0.039144725
000160 d3 42 84 bd 51 cf 2d 3e 96 55 cd 3d 55 ec 8e be
       -0.06458058 0.16973616 0.1002609 -0.27914682
000170 31 6d f0 bd d4 b1 27 bf 25 5d 41 3d e8 34 0d bf
       -0.117395766 -0.6550572 0.04720797 -0.55158854
000180 59 37 65 be 8f 45 ca 3a c5 1d 56 3d 82 1b c6 bd
       -0.22384395 0.0015432107 0.052274484 -0.096732154
000190 f9 b5 dc bd b8 2a e9 bc 0f e5 75 3d 14 6a 9b bd
       -0.10776896 -0.028462753 0.0600329 -0.07588592
0001a0 66 3f bb be ba b0 94 3c a0 a8 b5 be d0 d2 9e 3d
       -0.36571807 0.018150676 -0.35480213 0.07755053
0001b0 4d 50 5b be 2f ba 3a 3e 51 cf c9 3d cf e0 0c be
       -0.21417351 0.18235086 0.098539956 -0.13757633
0001c0 ca 1f 75 be be 61 db bd d6 da a0 bd 7b 93 02 bd
       -0.23937908 -0.10712002 -0.0785424 -0.03187893
0001d0 29 4e 87 bf 56 70 84 bc 33 82 a1 be e6 ec 89 be
       -1.0570728 -0.016166847 -0.31544647 -0.26938552
0001e0 8b 0d 71 be 9a 51 d1 bc 38 02 ca 3e 78 2f 06 bf
       -0.23540322 -0.025551606 0.39454818 -0.5241618
0001f0 19 6b f9 bd 41 2f f8 3e 21 76 65 be 51 6e be bd
       -0.121786304 0.48473552 -0.22408344 -0.09298385
000200 7d 9e 2e bf 2e 4d 27 be 53 6f ce 3d f9 c9 fd 3e
       -0.68210584 -0.16338035 0.10079827 0.49568155
000210 42 ea 24 bf 0e 37 20 3f 2e 9c 89 be bf d4 4b be
       -0.6441995 0.62584007 -0.26876968 -0.19905375
000220 5b b6 51 be 25 d9 3e bf 13 9b 17 3e 3f 38 22 be
       -0.2047972 -0.74550086 0.1480525 -0.15841769
000230 f1 62 98 bd 5c ea 1d bf 6c 31 0b bf d3 6c 8c bd
       -0.074407466 -0.6168573 -0.54372287 -0.06856694
000240 79 f2 66 3e 26 39 d3 3d b1 bd 48 bf 36 52 63 3e
       0.22553433 0.103136346 -0.78414446 0.2219933
000250 9b 05 84 be 98 e9 6d be bf ee 09 be 80 d2 40 be
       -0.25785527 -0.2323364 -0.1346998 -0.188303
000260 ba e8 a4 be f2 52 b5 3e dd 50 6c 3f bf 76 d7 3e
       -0.32208806 0.35414845 0.9231089 0.42082784
000270 00 d4 c8 bd ea bc 32 be 19 3a b8 3d df 2e 15 3e
       -0.09806061 -0.17454877 0.08995456 0.14568661
000280 a3 08 3f be 0c c8 6c be 83 4e 90 be 29 21 72 3e
       -0.18655638 -0.23123187 -0.281849 0.23645462
000290 71 62 a9 be 45 73 d0 bd 26 a5 c5 3e af b8 ae be
       -0.33082917 -0.10178236 0.3860256 -0.34125277
0002a0 04 ee 4a 3e 33 9f 12 bf 1f 1d 8d 3e 1d ef 08 bd
       0.19817358 -0.5727417 0.2756128 -0.03343116
0002b0 62 de 81 3e fc ec 82 be 99 23 9b 3e 31 9d d9 bd
       0.25364977 -0.2557143 0.30300596 -0.10625685
0002c0 ac a5 19 3f b6 31 82 be d1 29 85 be 53 62 df bd
       0.6001842 -0.2542855 -0.26008466 -0.10907426
0002d0 88 75 93 be d9 00 7d be d2 04 af bd 60 db a7 be
       -0.28800607 -0.24707355 -0.08545841 -0.32784557
0002e0 d3 50 fd 3b 80 57 13 be ad c8 bb 3e 19 aa b1 3e
       0.0077305823 -0.14388847 0.3667654 0.34700087
0002f0 00 ac 21 bf 9c e0 83 3e b5 69 96 be b3 1b 82 be
       -0.63153076 0.257573 -0.29377523 -0.25411758
000300 56 bf 85 3e d2 f6 30 bc ae 6e ba 3e b7 e9 f5 bd
       0.2612254 -0.010801034 0.36412567 -0.12007468
000310 8d 53 27 bf 8d 38 1b 3e 47 b9 28 be b8 57 96 3e
       -0.65361863 0.15158291 -0.16476928 0.293638
000320 0c 20 fc 3e 22 cf 05 3e a6 11 02 be 4c 6d 32 3e
       0.492432 0.13067296 -0.12702045 0.17424506
000330 44 f7 46 be c1 43 67 be 6b ff a0 be fb ec 22 3e
       -0.19430262 -0.2258444 -0.31444868 0.15910713
000340 ab 14 9d 3e d8 0c aa bd c2 91 5d be 24 4e 30 bf
       0.3067983 -0.08303231 -0.21637633 -0.68869233
000350 b6 d1 40 be 2b 1d 45 3c 80 17 2c bf ee 5b b1 be
       -0.18829998 0.01203088 -0.6722336 -0.3464045
000360 d8 4f 5d be df 0f 20 3f a1 c0 db be 0f d4 a2 3e
       -0.21612489 0.6252422 -0.42920402 0.31802413
000370 87 0b 83 bd d1 31 33 bf 96 28 dc bd 68 22 79 bb
       -0.06398683 -0.6999789 -0.10749929 -0.0038014892
000380 65 41 c8 3e 6c dc 10 3f 52 f9 27 be b2 70 15 be
       0.39112392 0.5658634 -0.16403702 -0.14593771
000390 e6 ac 8e be 77 08 41 bf c3 b2 7a 3e dc 56 a2 be
       -0.27866286 -0.7540354 0.24482255 -0.31706893
0003a0 7a f1 b0 3e c0 0d be 3d 88 6e df be 3b 11 c9 bd
       0.34559232 0.09279966 -0.43639016 -0.098177396
0003b0 a6 9f f5 bc 91 2e 7b be 1f 07 6e bd fc f9 05 bf
       -0.029983353 -0.24529482 -0.05811226 -0.5233457
0003c0 34 4d 13 3f ea 06 2a 3e d9 ee dd bd 66 1c ba 3e
       0.5753968 0.166042 -0.10836572 0.3634979
0003d0 1b 8a 21 bf fc ab ee be a0 b8 80 be ee ca af 3e
       -0.6310136 -0.4661559 -0.25140858 0.3433451
0003e0 0d e4 02 3f 02 8f 9b be 7c f8 3d bf 3c b2 29 be
       0.5112923 -0.30382544 -0.7420728 -0.16571897
0003f0 52 7c 0e be 2e 83 bc be 64 cc 78 be 27 d9 a7 3d
       -0.13914612 -0.36818832 -0.24296719 0.081957154

arith.constant17 f4 [512, 128]
000000 c0 bc 80 be 13 62 ec be ed ac 0d 3e e1 fb ee bd
       -0.25144005 -0.46168575 0.13835497 -0.11669136
000010 2c 17 9c 3d 36 70 95 be 4c 04 30 be 0c d6 00 3f
       0.07621607 -0.29187173 -0.17189139 0.5032661
000020 7c 33 f9 3d 60 6a 1f 3e cc 3d 1f bf 97 b0 d2 bc
       0.12168023 0.15567923 -0.6220367 -0.02571897
000030 d7 e9 00 bf 98 e4 06 3f fa f0 41 bd 37 e8 27 3e
       -0.5035681 0.52692556 -0.047348954 0.16397177
000040 54 e2 cf be dd eb e3 3e 6a 75 3f 3e 91 6c 99 be
       -0.40602362 0.44515887 0.18697134 -0.29965642
000050 20 b5 11 bf fe 1f e4 3e cd 03 cd 3e ca 8a 35 3e
       -0.56917 0.44555658 0.40041962 0.17728725
000060 06 d7 2c 3f b1 4d 87 3d 6a 50 0b 3d 75 cc 48 be
       0.675156 0.06606615 0.034012236 -0.19609244
000070 70 69 f8 be 09 17 ce 3e d5 4c 63 be d5 4a 0e be
       -0.48517942 0.4025195 -0.22197278 -0.13895734
000080 1a 22 b5 be d0 a5 d1 3d a6 3f d2 3e 74 db 1e bf
       -0.3537758 0.10236704 0.41064185 -0.6205361
000090 7c 69 96 be be 19 7c bc aa 05 1e bf 8e 0b 45 be
       -0.29377353 -0.015386997 -0.6172739 -0.19242689
0000a0 97 07 71 bf 1f a9 29 bc 58 6b db bd c4 6d 99 be
       -0.94152206 -0.010355263 -0.107138336 -0.29966557
0000b0 77 af e0 be b1 08 be be 9d 0e fa bd d5 ca ae be
       -0.4388387 -0.37116006 -0.122098185 -0.34139124
0000c0 1d 6e 9a 3e 0c ad c4 3e 3c a3 a1 3e 02 da af 3e
       0.30162135 0.38413274 0.3156985 0.34346014
0000d0 ae cc 10 3e 20 0c fd 3d 44 56 2b bf 6a 48 31 3f
       0.14140579 0.12355828 -0.66928506 0.6925112
0000e0 45 21 c2 bd 51 02 42 be ed 07 f3 be 53 97 63 be
       -0.09479002 -0.18946196 -0.47466984 -0.22225694
0000f0 ef 9b 7b be 16 6c a5 bd 65 f7 9a bd 71 68 83 3e
       -0.24571203 -0.080772564 -0.07566718 0.2566562
000100 5a 52 1c 3e 10 b1 20 3d f3 50 ec be 38 bf b8 3e
       0.1526579 0.03923136 -0.4615551 0.36083388
000110 46 dc f2 3e 73 6d c9 3d 52 2f 75 3e c9 4d 01 bc
       0.4743368 0.09835329 0.23943833 -0.007892081
000120 9e 15 03 3e ae 77 c8 be fd 68 e0 bd 46 1b af be
       0.12801215 -0.39153808 -0.10957525 -0.34200495
000130 1b d9 44 3d 8c 6d 85 be c2 dd e9 3e b9 35 41 3e
       0.04805861 -0.2606014 0.45677 0.1886815
000140 c5 b9 f9 3c 95 85 06 bf 76 bd a8 3e 44 bd 25 3f
       0.03048409 -0.5254758 0.32957047 0.6474192
000150 11 b2 26 be cb b4 9e bd 9c 4f cf be 8b 48 17 be
       -0.16278864 -0.07749327 -0.40490425 -0.14773767
000160 ef f3 1e 3f 22 c8 4a be 7b 34 a9 3c eb de 12 3f
       0.62090963 -0.19802907 0.020654907 0.57371396
000170 e0 cb f7 bb a5 bc 74 be f0 f7 b5 bd 75 7e 16 3e
       -0.0075621456 -0.23900087 -0.08885181 0.14696677
000180 d9 00 a3 be dd 39 ce bd 79 7d d3 be 7c ad 9c 3e
       -0.31836584 -0.1006963 -0.41306666 0.30601108
000190 b7 2e 01 bf bc 5c b2 be 82 90 c2 3d 96 b6 43 3d
       -0.50461906 -0.34836376 0.09500219 0.04778155
0001a0 b3 12 54 3e 60 45 1d 3e a2 fe b7 be 54 de d2 3d
       0.20710258 0.15358496 -0.35936457 0.10296312
0001b0 ea f0 00 be c3 4e dd be 96 b6 8c bd 5c ce cb 3e
       -0.12591901 -0.43224153 -0.06870763 0.39805877
0001c0 ce 31 41 bf b9 a3 7e bd 52 9b ae 3e 5b 5f fa be
       -0.7546662 -0.062167857 0.34102875 -0.48900875
0001d0 14 01 e8 bd 37 09 4a 3e 1c b8 22 3f ba 9f 35 3c
       -0.11328331 0.19730078 0.6356218 0.011085445
0001e0 ef d3 03 bf 1d 73 15 3e 75 a0 b7 3e 6e 5e 92 be
       -0.5149526 0.14594693 0.35864606 -0.2858767
0001f0 2c 87 d8 be c8 52 1c 3d d3 7e 6f 3e a8 47 15 3d
       -0.42290628 0.038164884 0.23388223 0.03644529
000200 67 06 b4 3d f0 c0 8b be 2f 08 18 3e 86 a4 d8 3d
       0.08790284 -0.27295637 0.14846872 0.10578255
000210 7d 86 a7 3e 0f 30 b5 3d 66 ff 84 3d e0 15 73 3e
       0.32719794 0.08847057 0.06494026 0.23738813
000220 1f 4e b9 3e c2 5c 80 3e ee d3 b4 be 8e 7f 91 be
       0.36192414 0.2507077 -0.3531794 -0.2841763
000230 55 c6 89 be 46 6f e4 bd ef d0 c7 be be a0 7f bd
       -0.26909128 -0.11154036 -0.3902659 -0.062409155
000240 fd f4 ff be 56 62 26 3f 6d 8b 5f be 04 3d 5f bd
       -0.499916 0.649938 -0.2183053 -0.05450155
000250 51 da 2c be 53 46 ee 3d a1 33 09 3e 1e e4 1b bd
       -0.16880156 0.11634507 0.13398601 -0.038059346
000260 f3 64 04 3f b0 fd b5 3e b9 45 4f be e5 6b 0f bf
       0.51716536 0.3554511 -0.20241441 -0.5602401
000270 7a 95 c1 be a9 7a 82 3e 50 e2 7c be 33 27 26 be
       -0.37809354 0.25484207 -0.24695706 -0.16225891
000280 ac a3 5e bd 2e dd 8f be 89 7a 60 3d 6f 7c f5 be
       -0.05435531 -0.28098434 0.05480436 -0.47946498
000290 71 05 ab be 96 57 19 bf de fe 9a 3e 1a 36 a4 3e
       -0.3340259 -0.5989927 0.30272573 0.32072526
0002a0 e1 af 6b be 54 77 1c be de e8 81 3e 91 8e 19 be
       -0.23016311 -0.15279895 0.25372976 -0.14995791
0002b0 b9 0d 19 be cc 1f 60 3e cd 19 95 be 08 83 d5 3e
       -0.14946641 0.2188713 -0.29121247 0.4170153
0002c0 5f e5 0b bd 02 2b 53 3b df f7 7f 3e 28 47 7a 3c
       -0.034154292 0.003222168 0.24996899 0.015275754
0002d0 14 57 99 3e a3 4c 2e be 81 29 24 bd 87 64 83 3e
       0.29949248 -0.17021422 -0.040078644 0.25662634
0002e0 cd 3a da 3e ae fb 32 3e 73 02 96 3e 02 90 c0 bd
       0.42622986 0.1747882 0.29298744 -0.09402467
0002f0 7a f3 58 bc 8b f4 d1 3e 31 fc 8a bd f2 3d 98 be
       -0.013241643 0.41006884 -0.06786383 -0.2973476
000300 c7 bf 34 3e 9a f1 a7 3c 15 5c b3 bc bb 04 55 3e
       0.17651282 0.020500947 -0.021894494 0.20802586
000310 e0 e8 e2 3d 37 9c 8e be c3 c6 80 be e9 61 a0 bd
       0.11079574 -0.27853557 -0.25151643 -0.07831175
000320 f3 fe 58 be c5 92 a7 be 67 52 18 be 48 a7 02 be
       -0.21191005 -0.32729164 -0.14875184 -0.12759125
000330 6c cb e4 bc dd fd 2d bd 7d 72 da be cb 76 73 be
       -0.02792903 -0.04247843 -0.42665473 -0.23775785
000340 53 08 cf 3d 07 91 67 3e 15 c7 a3 bd 07 f0 2f 3e
       0.101090096 0.22613917 -0.07996956 0.17181407
000350 2d 32 5f 3d 41 43 77 be f4 76 4d 3f e3 fb 11 3f
       0.05449121 -0.24146749 0.80259633 0.57024974
000360 f3 23 76 3f 65 8b 48 3d a3 67 aa be ba d8 af 3c
       0.96148604 0.048961062 -0.33282194 0.021465648
000370 a4 8a bd be d5 8a 5b 3d ee 87 3d be 05 f0 a3 bd
       -0.37019837 0.053599197 -0.18508884 -0.080047645
000380 fa 55 53 be fa 2f e8 3c 15 0a 1c 3d ae 33 82 be
       -0.20638266 0.02834319 0.038095552 -0.25430053
000390 a8 6a 48 3d e7 b7 19 be c8 4d c4 be 09 84 2f 3c
       0.04892984 -0.1501156 -0.38340592 0.010712632
0003a0 c2 4d 22 be a1 54 54 3e 0b b3 5b bd 60 5a 83 3d
       -0.15849975 0.20735408 -0.053637546 0.06413722
0003b0 15 11 b0 3d 00 7e ed bd 73 bb 20 be f1 69 94 3e
       0.08597008 -0.11596298 -0.15696506 0.28987077
0003c0 dd e0 00 3e 3a ac 1c bd 4d 30 a8 3e 79 bf a7 3d
       0.12585779 -0.038250186 0.3284935 0.081908174
0003d0 33 e1 82 be b8 ab 54 3e 3e f5 43 be be b4 d4 bd
       -0.25562438 0.2076863 -0.19136521 -0.10386036
0003e0 2f b0 5c 3d ba ae 60 bd 8a 52 e2 3d 29 f3 37 3c
       0.05387896 -0.054854132 0.11050899 0.0112274075
0003f0 38 b0 69 be c0 af 41 3d b5 5b 98 3d 1f be f7 3d
       -0.22821128 0.04728675 0.07439367 0.120968096

sequential_1/lstm_1/while/lstm_cell_1/add_1/ReadVariableOp f4 [512]
000000 4a b7 df be 52 d2 17 bf 0b 43 58 bf 2d 8e 5e bf
       -0.43694526 -0.593053 -0.844773 -0.86935693
000010 5d bd 65 bf fd aa 41 bf 0e 19 07 bf 61 85 c5 bf
       -0.8974207 -0.7565153 -0.52772605 -1.5431329
000020 0b dd ab be 84 05 4a bf 08 3c 75 bf e3 9f ac bf
       -0.3356708 -0.78914666 -0.95794725 -1.3486294
000030 29 16 95 bf 6b 54 7e bf 94 1b ba be fd aa 5e bf
       -1.1647388 -0.9934756 -0.36349165 -0.8697966
000040 d4 02 77 bf e7 e6 a9 bf 0b d4 4c bf cb dd 4a bf
       -0.9648869 -1.3273591 -0.8001105 -0.7924468
000050 28 47 5e be 68 0f 18 bf 87 e7 91 bf 31 62 55 bf
       -0.21706831 -0.5939851 -1.1398782 -0.83352953
000060 29 21 93 bf 64 12 1f bf 34 06 1c bf 2f 70 69 bf
       -1.1494495 -0.62137437 -0.60946965 -0.91186804
000070 f2 35 8c bf da c1 76 bf 06 5c 86 bf 58 62 72 bf
       -1.0953963 -0.96389544 -1.0496833 -0.9468131
000080 cd 4d 39 bf ff 68 1e bf 18 ce 55 bf 18 24 67 bf
       -0.7238434 -0.6187896 -0.835176 -0.9028945
000090 c1 f3 df be fd 9b 94 bf 1d df 84 bf 9f cb 3d bf
       -0.43740657 -1.1610104 -1.0380589 -0.74138826
0000a0 5a b1 95 bf 26 98 2a bf 09 04 6d bf cc 6f 25 bf
       -1.1694748 -0.6663841 -0.9258428 -0.64623713
0000b0 d0 07 39 bf 4d df 0d bf 18 26 6f bf bc 7b a2 be
       -0.72277546 -0.55418855 -0.934175 -0.31735027
0000c0 a6 7d 8c bf 0c 94 03 bf 23 15 8b bf c3 b7 6c bf
       -1.0975845 -0.51397777 -1.0865825 -0.924679
0000d0 fa dc 0f bf 51 2b 31 bf e6 29 34 bf 28 8f 4b 3e
       -0.5619656 -0.6920672 -0.7037643 0.19878829
0000e0 87 80 64 bf 46 0f 5d bf 64 89 87 bf e9 e4 ae bf
       -0.8925862 -0.8635143 -1.0588803 -1.3663608
0000f0 a8 f1 88 bf b3 c5 61 bf 64 07 6e bf 55 b2 b1 be
       -1.0698748 -0.8819229 -0.9298003 -0.3470637
000100 c7 3a 87 bf b2 f4 03 bf d5 82 4e bf 39 75 c9 bf
       -1.0564812 -0.5154525 -0.80668384 -1.5738899
000110 51 b3 3d bf d6 05 b3 bf fd 97 7a bf 64 37 bd bf
       -0.7410174 -1.3986156 -0.97888166 -1.4782529
000120 78 58 7f bf 8b 99 a8 bf 87 01 8d bf e3 96 3a bf
       -0.9974437 -1.3171858 -1.1016091 -0.72886485
000130 66 ba b5 bf f9 ac 6c bf 81 bb 26 bf af 30 71 bf
       -1.4197509 -0.92451435 -0.6512986 -0.9421491
000140 dc 7c de be 2f 53 0c bf 3f 72 63 bf 0f 88 fc be
       -0.43454635 -0.5481443 -0.888462 -0.49322554
000150 da c0 55 bf 99 aa 28 bf 64 b0 9f bf de 90 cd be
       -0.83497393 -0.6588531 -1.2475705 -0.40149587
000160 be f3 63 3e 32 75 c9 bf 28 14 9e bf 6d 2c 3c bf
       0.22260949 -1.573889 -1.2349901 -0.7350529
000170 26 7a 3f bf 81 af a5 bf 94 bf cf bf a7 ad 84 bf
       -0.7479576 -1.2944185 -1.623034 -1.0365494
000180 f9 95 82 bf 48 17 59 bf 19 50 25 bf 15 b1 80 bf
       -1.0202018 -0.8480115 -0.64575344 -1.0054041
000190 0c ed 02 bf 24 09 f4 be 64 0e 5b bf 3d dc 28 bc
       -0.51142955 -0.47663224 -0.85568833 -0.010306415
0001a0 a8 a5 7a bf 78 01 46 bf c7 c5 25 bf ad d3 8d bf
       -0.9790902 -0.7734599 -0.6475491 -1.1080223
0001b0 13 91 18 bf f4 b2 fe be 88 3f 61 bf 21 78 73 bf
       -0.59596366 -0.49745905 -0.87987566 -0.9510518
0001c0 df 03 86 bf a8 0d 66 bf a4 05 92 bf 1a 05 62 bf
       -1.0469931 -0.8986459 -1.1407971 -0.88289034
0001d0 26 58 92 bf 15 36 95 bf b6 96 52 be b9 2e 35 bf
       -1.1433151 -1.165713 -0.20565304 -0.7077442
0001e0 4f bf 5d bf 9f 64 93 bf f8 99 ab bf d1 9a 90 bf
       -0.8662004 -1.1515082 -1.3406363 -1.1297246
0001f0 9c df 91 bf 3b 43 87 bf 5c d6 56 bf 3a 1d 99 bf
       -1.1396365 -1.0567392 -0.83920836 -1.1962044
000200 f6 81 30 3f 3b a9 57 3f f7 a8 8c 3f 6c af 89 3f
       0.68948305 0.842426 1.0989064 1.075666
000210 ab c6 fb 3d 0b 04 89 3f 57 b1 0d 3f a9 15 db 3e
       0.12293752 1.0704359 0.55348724 0.42789963
000220 c6 75 86 3f ea eb 87 bd 5a a4 c5 3e 7a af 38 3f
       1.0504692 -0.06636794 0.38601953 0.72142756
000230 c3 51 40 3f fd 04 1a 3f ab 13 3f 3f ba 4f 83 3f
       0.7512476 0.6016386 0.74639386 1.0258706
000240 b9 eb 3c 3f b4 16 b6 3f b3 e8 11 3f e0 da 8b 3e
       0.73797184 1.4225678 0.56995696 0.27315426
000250 55 e1 55 3f 4a 89 e0 3e 94 44 1f 3e 5e bb 66 3e
       0.83546954 0.43854743 0.15553504 0.22532412
000260 d5 d8 12 3e bb 5b ac 3f bb 02 b8 3f 5c 88 89 3f
       0.14340527 1.3465494 1.4375833 1.0744739
000270 b1 21 2f 3f 1a f1 6c 3f 89 24 84 3f 90 e0 bb 3f
       0.68410784 0.9255539 1.032365 1.4677906
000280 69 02 56 3f 4e 9c 8c 3f aa ca 2b 3f f0 ec 80 3f
       0.8359743 1.09852 0.67106116 1.0072308
000290 c6 d5 5d 3f 93 6f 0d 3f da 0e 1d 3f e5 5a 33 3f
       0.8665432 0.55248374 0.61350787 0.7006057
0002a0 49 df 59 3f ea 8d 9b 3f 08 5b 79 3f f6 b7 3d 3f
       0.8510633 1.2152684 0.9740453 0.7410883
0002b0 b3 34 69 3f 92 41 d1 3e 32 bc 8c 3f 3f f6 83 3f
       0.9109604 0.4087034 1.0994933 1.0309523
0002c0 56 9e 58 3f 59 0e e9 3e 6a bc 30 3f 59 76 5f 3f
       0.846166 0.4551876 0.690375 0.8728996
0002d0 3e b5 34 3f c2 9f 6c 3f 5d 8d 61 3f 7a 33 50 3f
       0.70589054 0.9243127 0.8810633 0.81328547
0002e0 b0 15 82 3f b2 53 89 3f a5 05 1e 3f b7 22 8e 3f
       1.0162868 1.0728667 0.6172736 1.1104344
0002f0 22 72 f9 3e 04 55 6c 3f 79 72 84 3f 33 4e 3b 3f
       0.4871989 0.92317224 1.0347434 0.731662
000300 59 48 96 3f 99 92 af 3e 2b a0 89 3f 2b 11 80 3f
       1.1740829 0.34291533 1.0752004 1.0005239
000310 d5 24 ce 3e 76 25 f0 3e 3b 45 f0 3e aa aa 05 3f
       0.40262476 0.4690358 0.4692782 0.5221354
000320 fb 09 80 3f bb 9a bb 3d 0c 5a 87 3f 4d c8 a1 3f
       1.0003046 0.09160372 1.0574355 1.2639252
000330 e6 12 d5 3e ce 94 4e 3f 49 0b 15 3f c8 61 5e 3f
       0.4161598 0.8069581 0.58220345 0.8686795
000340 cf 4e 26 3f 49 46 0a 3f 86 8f 58 3f 13 b7 e1 3c
       0.64964 0.54013497 0.84594 0.027553117
000350 5e 65 30 3f 6e 97 40 3f 2d 08 da 3e a3 d7 65 3f
       0.68904674 0.75231063 0.42584363 0.8978216
000360 fb 3c 0f 3f b2 22 4f 3f 2d f7 30 3f e2 3e 40 3f
       0.55952424 0.80912316 0.6912716 0.7509595
000370 e1 54 8e 3f 71 5e bd bd 7b a3 38 3f cd e7 6f 3f
       1.1119653 -0.09246529 0.7212445 0.93713075
000380 84 09 86 3f 82 f7 82 3f a1 46 83 3f 42 f5 c5 3e
       1.0471654 1.0231783 1.0255929 0.3866368
000390 9e 78 50 3f e0 b6 f6 3e a5 5d a1 3f 22 3a 35 3f
       0.8143405 0.48186398 1.2606703 0.7079183
0003a0 04 da 79 3f 55 eb 97 3f db 9e 37 3f 71 7b 35 3f
       0.9759829 1.1868693 0.7172677 0.7089148
0003b0 07 e6 33 3f ff b3 28 3f e4 0b f9 3e e6 82 66 3f
       0.7027287 0.6589965 0.48641884 0.90043485
0003c0 69 af 83 3f 48 73 8c 3f 07 93 87 3f 0a 62 6f 3f
       1.0287906 1.0972681 1.0591744 0.9350897
0003d0 1f a3 36 3f 4b cb 99 3e 3f fd 72 3f 26 82 96 3f
       0.71342653 0.30037913 0.9491767 1.1758468
0003e0 01 af 88 3f 0e ae 70 3f 2b a0 c9 3e 49 a0 41 3f
       1.0678407 0.94015586 0.3938001 0.756352
0003f0 07 68 51 3f 5b c1 5c 3f 9e bb 56 3f 9e 22 5b 3f
       0.8179936 0.8623254 0.8388003 0.85599697

arith.constant21 f4 [512, 128]
000000 7f a8 04 be 23 47 bb be bb 96 86 3e ca c3 29 be
       -0.12954901 -0.3657771 0.26286873 -0.16578594
000010 e7 cc f8 be 49 ec e0 be b2 79 72 be 84 34 d8 bd
       -0.48593828 -0.4393027 -0.23679236 -0.105568916
000020 42 45 1b 3e 74 71 d2 be 1e e1 0d 3e 80 8d 99 3a
       0.15163139 -0.41102183 0.13855407 0.0011715144
000030 91 27 10 bf 63 79 67 3d 4c 99 95 3e 0c 40 97 3e
       -0.56310374 0.056512248 0.2921852 0.2954105
000040 e7 97 e8 3d a2 19 79 3e 47 9b a6 be 73 15 cb 3e
       0.11357098 0.24326184 -0.32540342 0.39664802
000050 76 59 0c bf 62 bd 5d be 76 d0 9c 3e 6a 88 cb be
       -0.54824007 -0.21654275 0.30627793 -0.39752513
000060 17 5a 83 3e e4 11 9c 3e de 08 08 3e 8d 7a a4 3d
       0.2565467 0.304824 0.13284633 0.08031187
000070 2c b4 1c be ef 83 c2 3d 96 f2 1d be 67 79 61 be
       -0.15303105 0.094978206 -0.1542457 -0.22018968
000080 76 24 4d bd 3d e2 fc 3e 51 4f 12 be d6 b3 d9 bd
       -0.0500836 0.49391356 -0.1428807 -0.10630004
000090 c2 26 d0 bd 77 c0 8e bd af dc d4 bd 30 f2 b3 bd
       -0.101636425 -0.069703035 -0.103936546 -0.08786428
0000a0 bf dc 83 bd f0 89 0a 3e 0d f4 24 3e 50 55 a9 3d
       -0.06438588 0.13529181 0.16108723 0.08268225
0000b0 0f c7 bf bc 68 e5 92 3e 80 28 27 bc 9a 7f 01 bf
       -0.023410348 0.28690648 -0.010202527 -0.5058533
0000c0 27 ab 36 be e8 be c5 3e 32 62 12 3e 25 9d a3 3c
       -0.17838727 0.38622212 0.14295271 0.019972393
0000d0 e3 54 c3 3e 60 93 1d 3e a9 8c ad 3e 2c fc 26 3f
       0.381507 0.1538825 0.33896378 0.65228534
0000e0 57 e5 16 3d d5 7b 84 3e 5f a3 5a 3e 91 80 d9 be
       0.03683981 0.25875726 0.21351384 -0.424809
0000f0 ef 5a a9 3e 36 a0 3b bd 92 88 54 bd 23 5e a8 be
       0.3307719 -0.045807086 -0.051888056 -0.3288432
000100 c5 da 2b bd 27 88 bd 3e 83 67 0f bf 00 f4 c7 3e
       -0.04195668 0.37017938 -0.5601732 0.39053345
000110 39 70 28 be ec 4d 43 3e 0b ff db bd f7 35 78 bd
       -0.1644906 0.19072694 -0.10742005 -0.06059834
000120 9a 14 9d 3e a8 47 36 be 3a 9a 5d bd fb d0 83 be
       0.3067978 -0.17800772 -0.05410216 -0.25745377
000130 3b 73 94 3e a0 6d 11 be be 2b 85 3e de 31 42 be
       0.28994164 -0.14201975 0.26009935 -0.18964335
000140 fb c3 9d 3e 54 4f 25 3e bf 45 d7 3d fb c3 dc bd
       0.30813584 0.16143543 0.1051135 -0.10779568
000150 cb 34 9d 3d ef 93 06 3f 4b da 9f be 35 a4 46 be
       0.07676085 0.5256948 -0.31221232 -0.19398578
000160 10 af 38 3e c0 32 0e 3e ea 2c 7c be eb ea 3b 3d
       0.18035531 0.13886547 -0.24626508 0.045878332
000170 26 80 ff bd 8f 90 02 bd de 9f c4 bb 6b 45 6f be
       -0.12475614 -0.031876143 -0.006000503 -0.23366325
000180 9d d1 41 bf d1 6b 25 3e 9f d6 91 bd be f1 d0 3e
       -0.7571047 0.1615441 -0.07121014 0.40809435
000190 1d a3 bf bd 95 28 04 3f aa 41 c3 bd 2a 2d 08 3e
       -0.09357283 0.51624423 -0.09534009 0.13298479
0001a0 ed f3 76 3e a8 cc ba be 87 09 39 3d a0 35 6d be
       0.24116488 -0.36484265 0.0451751 -0.23164988
0001b0 e9 f6 fd 3d eb ad 59 3f cc 1a ee 3d e8 39 d4 3e
       0.1240061 0.85031 0.11626205 0.4145043
0001c0 ae a2 83 be 3f 72 6e be 0f 65 c7 3d 68 d3 23 3e
       -0.25710052 -0.23285769 0.09736072 0.15998614
0001d0 56 08 bc be 78 01 cf 3e dd 9b 5d 3e d3 30 75 3e
       -0.3672511 0.40430808 0.21641488 0.23944406
0001e0 54 2c 00 bf c0 fa 2f bf 02 b6 dd bd 52 ee e3 3c
       -0.5006764 -0.6874199 -0.10825731 0.0278236
0001f0 6d ce 17 3d 7a 99 75 be 8a 20 5f bd d4 60 66 3d
       0.037062097 -0.23984328 -0.05447439 0.056244686
000200 b6 b8 2d bf 1c 06 05 3d fe e6 16 be b0 04 5f 3e
       -0.6785997 0.03247653 -0.14736554 0.21779132
000210 b8 61 21 bf a0 14 d5 3e fc dc 46 3e 53 70 ce 3c
       -0.6303973 0.41617298 0.19420236 0.025200045
000220 96 80 be 3d 5c e0 8a be 35 0c b7 3e 36 2c b1 bd
       0.093018696 -0.27124298 0.357515 -0.08651011
000230 2e f3 02 be 41 11 1c bf aa 6a de 3d 29 cf d4 3d
       -0.12788078 -0.6096383 0.10860188 0.10391075
000240 d2 b0 8f bd 9a 17 90 3e 8d 3c 9a 3e 36 de d0 bd
       -0.07016148 0.28143007 0.30124322 -0.101986334
000250 20 21 b5 3d 30 1d 0c be c0 c5 0c bf b9 f6 22 bc
       0.08844209 -0.13683009 -0.5498924 -0.009946519
000260 91 9a 49 3e c4 e4 1e 3d ad 74 c1 bd 52 09 2a 3e
       0.19687869 0.038792387 -0.09446082 0.16605118
000270 4d 17 4e be 48 bf 9d 3e de aa 45 be bd a5 ca 3e
       -0.20126076 0.3081 -0.19303462 0.39579573
000280 49 62 22 bd aa 56 9d 3d 97 2a 16 3e 15 25 55 be
       -0.039644513 0.076825455 0.14664684 -0.20814927
000290 5f fc 14 3e 89 08 8c be 40 46 b5 3e b3 c3 9d bc
       0.14549397 -0.27350262 0.3540516 -0.019258356
0002a0 cd 01 81 bf 71 85 3c 3e e7 47 51 bd d5 0e 80 3e
       -1.0078675 0.18410279 -0.051093962 0.25011316
0002b0 0b 5c 9e 3e a3 83 60 bd 39 df eb 3d da c4 5a be
       0.30929598 -0.05481304 0.11517186 -0.21364155
0002c0 2c cb 04 3f d4 b3 a9 3e b6 c8 7c 3e 5c 30 1d be
       0.51872516 0.3314501 0.2468594 -0.15350479
0002d0 67 21 c1 3e ee e6 48 3e 1c 05 59 3d 37 ed 97 3e
       0.37720796 0.19619343 0.05298339 0.29673168
0002e0 73 38 71 bc dd b9 85 be 80 02 cf 3c c7 7b ac bc
       -0.014722931 -0.26118365 0.025269747 -0.021055115
0002f0 39 bc 3d 3e 4b 39 89 be ac 54 43 be b1 44 43 bb
       0.18528832 -0.26801524 -0.19075269 -0.0029795582
000300 51 06 73 bc 3d 9c 09 3e aa 6e 19 bf d9 f5 3a 3c
       -0.014833049 0.13438506 -0.59934485 0.011411154
000310 5d 8a 5b be 79 51 66 3e ab f7 87 be 00 2a 89 3e
       -0.214395 0.22492017 -0.26556143 0.26789856
000320 03 26 46 be 5e aa 9e bd 92 7e 8e be e3 92 b3 3d
       -0.19350438 -0.07747339 -0.2783094 0.08768251
000330 7a 74 16 bf a4 87 2a be 11 95 76 be 10 07 f4 bb
       -0.5877148 -0.16653305 -0.24080302 -0.007447131
000340 94 06 06 3d 86 e5 6a be e0 a8 b6 be 82 3e 34 3e
       0.032721117 -0.22939119 -0.35675716 0.1760197
000350 c3 c4 9c be 0b d3 2f 3e 5d 74 43 3e df 2e 87 be
       -0.30618867 0.1717035 0.19087358 -0.26402947
000360 95 15 90 bd f4 a2 fe 3c 66 97 95 be 76 fb 5c 3e
       -0.070353664 0.031083561 -0.2921707 0.215803
000370 b4 9f 5e 3e 89 5b 01 3e f4 56 db 3e d9 54 05 be
       0.2174061 0.12632574 0.42839777 -0.13020648
000380 7a e2 8c bc a0 e6 2f bd 69 e3 b2 3d ea ed 69 3e
       -0.017197836 -0.04294455 0.08734781 0.22844663
000390 4a 38 6a be 23 b5 d8 3e cf fe 9a bd a2 94 d9 3e
       -0.22873035 0.42325696 -0.07568132 0.4249621
0003a0 b8 47 4a bd 42 30 97 3d fb d1 30 be 49 d9 ac 3e
       -0.049384803 0.07382251 -0.17267601 0.33759525
0003b0 0a ea 57 3d 38 66 27 3d 30 5f c2 3e 8b 11 8f 3e
       0.05271343 0.040868968 0.37963247 0.27943072
0003c0 a7 4f 15 be a0 07 a0 be 6b b6 72 3e ad 5c 32 3d
       -0.14581166 -0.31255817 0.237024 0.043545414
0003d0 a8 28 d5 3e 85 15 9a bc b6 ff b2 3e c0 7a 6a be
       0.4163258 -0.01880909 0.34960717 -0.22898388
0003e0 9c 45 2b 3d 73 30 68 be 05 56 76 be 0f 0b 5a 3f
       0.04181443 -0.22674732 -0.24056251 0.85173124
0003f0 3a eb 78 bd 03 8b 8f be c9 01 9c 3e 0f 5a e5 bd
       -0.060771205 -0.28035745 0.30470112 -0.11198818

arith.constant22 f4 [512, 128]
000000 39 f7 50 3e a7 35 b3 3e 13 e2 02 3e 17 cf 86 3d
       0.20406808 0.3500187 0.12781553 0.06582468
000010 40 70 a0 be 7e c5 e5 bd 6f e8 94 be df 08 9c 3d
       -0.3133564 -0.11219309 -0.29083583 0.076188795
000020 80 de 68 be 46 dc c2 bc 10 60 25 be d2 e5 91 3e
       -0.22741127 -0.023786675 -0.16149926 0.2849565
000030 8c 60 ae be ed e3 f4 bd 61 85 bc 3e 82 27 c3 3e
       -0.34058034 -0.11957536 0.3682051 0.3811608
000040 12 b0 fa bd 8e 34 b5 3e 18 68 8b 3e 25 93 4e be
       -0.12240614 0.3539166 0.27227855 -0.20173319
000050 49 d8 14 be 27 2c 62 3e 24 29 60 be 53 95 15 3c
       -0.14535631 0.22087155 -0.21890694 0.00912984
000060 32 d7 41 3e d1 8f 57 3e 5c e3 ee bc 2a d0 54 3f
       0.18929747 0.21050955 -0.029161148 0.83130133
000070 37 79 64 bd 20 29 ad 3e 20 cc a0 be a3 f0 58 3e
       -0.055779662 0.33820438 -0.31405735 0.21185546
000080 2a e4 84 be 21 4f 87 3e 04 38 63 3e 1c 27 2d 3f
       -0.25955325 0.26427558 0.22189337 0.676378
000090 4c 6f 5b 3c 48 9b 21 be c3 96 9f bd 2b 62 85 bd
       0.013393234 -0.15781891 -0.077924274 -0.06512865
0000a0 24 1d 86 3e b5 95 ad bd 45 a3 85 3e e8 7c 95 3e
       0.26194108 -0.0847582 0.26101127 0.29196858
0000b0 3d b4 b1 3e 2e e6 3b bf f3 c8 cb be 92 cd d1 3d
       0.34707823 -0.733981 -0.3980175 0.102442876
0000c0 f4 d2 dc be f3 b5 b8 bd 2e da 57 3d b4 6f 6b be
       -0.43129694 -0.09019079 0.052698307 -0.2299183
0000d0 8d 34 ab be b2 e9 88 bd 35 b2 92 3e 62 00 f4 3e
       -0.3343853 -0.06685199 0.28651586 0.47656542
0000e0 57 4d 8d bc da 1b 98 3d 79 ad 7c 3e 78 b2 f7 3d
       -0.017248793 0.07427187 0.2467555 0.12094587
0000f0 92 33 32 3f 31 6c c1 3d 64 fa d0 bd c1 86 43 3e
       0.6960994 0.09444464 -0.10204008 0.19094373
000100 eb 49 e1 3e 94 3f 97 3e 4d 4a cf 3d e8 4d 2a 3e
       0.44001707 0.29540694 0.101215936 0.16631281
000110 11 ca ed be 50 75 7d bd 2d bf 2c be 3e 6c bc bd
       -0.46443227 -0.061879456 -0.16869803 -0.09200333
000120 ce 21 ad be b5 63 fb 3d bc 8e 8b bd 80 ba 12 bf
       -0.33814853 0.12274877 -0.06814334 -0.57315826
000130 05 fe 81 bd 86 9f 19 bb 57 25 55 be 7b 2a 6f bd
       -0.063472785 -0.002344103 -0.20815025 -0.058390122
000140 b2 f8 b4 3c 11 c6 35 3e 46 cd 60 be 8b 77 49 be
       0.022091243 0.17751338 -0.21953306 -0.19674508
000150 5c 8b df be 65 b9 19 bf f6 cb 16 bf ad 97 1f bf
       -0.4366101 -0.60048515 -0.5890497 -0.62340814
000160 2a 81 74 be fa e6 d8 3e 7e b7 28 bd f0 99 f4 bd
       -0.23877397 0.4236372 -0.041190617 -0.11943424
000170 9c da 04 3f 57 46 bc be 93 07 6d 3f 07 13 12 3e
       0.5189607 -0.36772415 0.9258968 0.14265071
000180 de ac f8 bd 5c 34 9d be 78 48 9f be 71 ac 67 3e
       -0.12142347 -0.3070401 -0.31109977 0.22624375
000190 16 a6 d6 3e 10 29 43 3d 1b 33 4b ba 94 0c 0e 3e
       0.4192359 0.047646582 -0.0007751451 0.13871986
0001a0 8b 62 73 be bd 55 5b be 31 9e c0 3e 18 ea 99 bd
       -0.2376806 -0.21419425 0.3762069 -0.07515353
0001b0 28 24 c4 bc e1 16 ef bc 2b a9 8e 3e b6 45 23 3c
       -0.023943022 -0.029185714 0.2786344 0.009965351
0001c0 f0 e9 39 bf 5f 34 4b 3f c6 05 fa bd 35 11 09 be
       -0.72622585 0.79376787 -0.122081324 -0.1338547
0001d0 59 89 ab 3a 9a c1 af 3d 21 ae 93 be 4c b9 37 3e
       0.0013087197 0.085818484 -0.28843787 0.17941779
0001e0 61 75 ab be 5b 42 24 be 0d 11 c6 be 59 7d 09 3f
       -0.3348799 -0.16040938 -0.38684884 0.5370689
0001f0 a5 f2 b9 bd 98 07 04 3e f3 97 6c bd a8 56 aa bd
       -0.09079484 0.12893522 -0.057762098 -0.083173096
000200 bb e1 1c bf 23 02 ab 3e 2c 68 8d be cf 04 32 be
       -0.6128194 0.33400068 -0.2761854 -0.17384647
000210 13 75 16 3f 61 8d 61 3f 59 3e 65 3c 77 2a 93 be
       0.5877239 0.8810635 0.013991916 -0.28743336
000220 48 93 7a be e7 59 41 be 9a bf 6a be 16 b9 54 3e
       -0.24470246 -0.18881951 -0.22924653 0.2077373
000230 ff f0 db 3b fb 7d 16 be f9 44 a2 be ba 61 6d be
       0.0067120786 -0.14696495 -0.31693247 -0.23181811
000240 4d 29 2a bf 90 a5 bc bc 97 3d ff be 96 f0 48 3d
       -0.6646927 -0.023028165 -0.49851677 0.049057566
000250 47 fb 96 3e df 92 59 3c 0f f4 74 3e a5 30 01 3f
       0.29488584 0.013279646 0.23921226 0.5046485
000260 32 d2 89 be d7 fb 56 3e fc 1a c6 3e 70 aa 73 bd
       -0.2691818 0.20994507 0.38692462 -0.059488714
000270 f2 6d e1 bd d6 6c 82 3a 2e 26 bb 3d f6 cb b4 be
       -0.110072985 0.0009950649 0.091381416 -0.3531186
000280 e9 a4 0e bd 2c 74 97 be 9b b4 ff bd d6 46 12 bd
       -0.03482524 -0.2958082 -0.1248562 -0.035712086
000290 99 73 d5 bd ae be 08 be 4d 63 8c 3e e4 e5 a4 3e
       -0.10422439 -0.13353989 0.2741951 0.32206643
0002a0 d2 3b c9 3c 7e 1c 10 be d6 ad 1a be 5a fb 72 bd
       0.024564657 -0.14073369 -0.15105376 -0.05932174
0002b0 e7 71 13 3f a2 99 d5 bc cd 63 2d be 76 e6 88 ba
       0.57595676 -0.026074234 -0.16932602 -0.0010444659
0002c0 9a ec c8 3e 35 2b 08 3f d6 66 93 3e d9 10 82 be
       0.39243013 0.5319093 0.28789395 -0.2540348
0002d0 49 0f 1f 3e fa 04 74 3e ff 9c 89 bd 7b 37 4c 3e
       0.15533175 0.23830023 -0.06719398 0.19943039
0002e0 57 62 a5 3e 8d bb 3e 3d 3c a4 f5 3c 40 d7 14 3e
       0.3230159 0.04656558 0.02998554 0.14535236
0002f0 af 19 d0 be 90 5c f0 be 46 95 16 be 98 1f 8d be
       -0.40644595 -0.4694562 -0.14705381 -0.27563167
000300 a7 fc 19 be 89 34 ce be 3c 68 c5 3e 43 2e 0c 3e
       -0.15037785 -0.40274456 0.38556087 0.13689522
000310 59 b6 00 3e f2 96 65 3d 97 61 56 bd 70 20 25 3f
       0.1256956 0.056052156 -0.052339163 0.6450262
000320 82 84 00 3f 1c de 40 be fc d7 b3 3e 22 cc 13 3d
       0.5020219 -0.18834728 0.3512572 0.036083348
000330 ec df 10 3e ad fa 85 bc ec a4 21 be e1 51 5c 3e
       0.1414792 -0.016354883 -0.15785569 0.2151561
000340 42 3e 82 3e ab 0e e2 3e 88 f3 c1 3e f7 d7 3f be
       0.25438124 0.44151816 0.37881112 -0.18734728
000350 86 d0 ab 3d f4 cd 15 3e 33 20 a9 3b e9 89 05 be
       0.08389382 0.14629346 0.005161309 -0.1304089
000360 f2 d4 a7 3e 33 60 94 be 77 74 fd 3c b0 4f c8 3e
       0.32779652 -0.28979644 0.030939324 0.39123297
000370 ac 78 b6 3d 17 45 b7 bd 8a 0e 85 be 74 16 46 3d
       0.08909735 -0.08948725 -0.25987655 0.048361257
000380 4d 44 85 bd 74 d6 04 3e b6 5e 62 bd ed 3d 91 3b
       -0.06507168 0.12972432 -0.055266105 0.004432431
000390 8f b2 97 be 1e d5 da be 0d 27 95 3d 90 1d 20 3e
       -0.29628417 -0.4274072 0.07282839 0.15636277
0003a0 82 1c 24 bd e0 91 f8 bc f1 66 f2 be ba e7 27 be
       -0.04006625 -0.030342996 -0.47344163 -0.1639699
0003b0 28 69 93 3e 99 af e5 bd f6 91 73 bd c0 da 1b 3f
       0.28791165 -0.11215133 -0.05946537 0.6088066
0003c0 dc 3e 21 3e c6 67 36 be ea 9f b9 3e 23 8a 82 3d
       0.15746635 -0.17813024 0.36254817 0.06374004
0003d0 62 d9 d6 3e c2 66 94 be 24 1d 8c 3e cc eb 30 3e
       0.41962725 -0.28984648 0.27365983 0.1727745
0003e0 46 13 9d 3d 1a 8d 21 3e 20 8c 67 bd 90 0c 1b 3c
       0.07669692 0.15776482 -0.056530118 0.009463444
0003f0 8d f4 da 3d 57 fc 91 be 77 3b 41 be ff 69 45 bd
       0.106911756 -0.28512833 -0.1887034 -0.04819679

sequential_1/lstm_1_2/while/lstm_cell_1/add_1/ReadVariableOp f4 [512]
000000 d0 96 20 bf ed 8a 2b bf c5 cd 1d bf b4 a0 4b bf
       -0.6273012 -0.6700886 -0.61642104 -0.7954209
000010 9e a3 57 be d6 b2 28 bf 2a 81 0d bf 3a 71 09 bf
       -0.21058509 -0.6589788 -0.55275214 -0.53688395
000020 44 2d d8 be 80 07 12 bf c2 55 27 bf be 1c 1c bf
       -0.42222035 -0.57042694 -0.6536523 -0.6098136
000030 ee 7f a3 be ba 54 0a bf 71 7b 2d bf 77 7e a4 be
       -0.3193354 -0.5403553 -0.6776648 -0.32127735
000040 f9 74 1d bf 87 9c 0c bf 30 a6 2d bf c2 de 20 bf
       -0.6150661 -0.5492634 -0.67831707 -0.628399
000050 1c be ed be 24 14 29 bf 20 2f 41 bf 5b ce d0 be
       -0.46434104 -0.6604636 -0.7546253 -0.40782437
000060 23 30 12 bf 96 db 3c bf 36 24 5f bf 05 90 25 bf
       -0.571047 -0.7377256 -0.8716463 -0.6467288
000070 07 08 e4 be 43 1b 23 bf 0b 8b a8 be 89 ca 78 bf
       -0.44537374 -0.63713473 -0.3291858 -0.97184044
000080 8c ae c8 be c8 e5 3b bf 7b af a4 bd f9 40 5a bf
       -0.3919567 -0.73397493 -0.08041283 -0.8525539
000090 09 5f d9 be 6c 64 d2 be 36 e9 e1 be 78 16 54 be
       -0.4245532 -0.4109224 -0.44123238 -0.20711696
0000a0 f2 34 6f bd d3 8c 19 bf 36 c3 c5 be 2b dc a0 be
       -0.058400102 -0.59980506 -0.38625497 -0.31417975
0000b0 a3 ba 3d bf 5c 50 10 bf fe b3 08 be b3 f0 33 bf
       -0.7411291 -0.5637262 -0.13349912 -0.7028915
0000c0 b2 f0 bf be 78 f1 c3 be f7 5c fd be 66 b3 fd be
       -0.37488323 -0.38270164 -0.4948499 -0.49550933
0000d0 85 fc 0a bf a1 76 80 be ba 17 d6 be a9 4b 0a bf
       -0.54291564 -0.25090507 -0.41814977 -0.540217
0000e0 a3 2a 0d bf cb 0f d5 be 15 6d 09 bf 3c 54 1b bf
       -0.55143183 -0.41613612 -0.5368207 -0.60675406
0000f0 18 07 2c bf 2f ff 2f bf db fd e4 be 45 f3 b5 be
       -0.67198324 -0.68748754 -0.44724926 -0.35537162
000100 b1 0c 26 bf 8c 55 4a bf 14 dc 1a bf c6 37 44 bf
       -0.64863116 -0.79036784 -0.6049206 -0.76647604
000110 fe 19 c9 be 0b 51 a4 be 75 0f 04 bf cd cf 39 bf
       -0.39277643 -0.3209308 -0.51586086 -0.72582704
000120 88 0d 2d bf 9c 52 1d bf eb 41 2f bf 82 36 07 bf
       -0.6759877 -0.61454177 -0.6845996 -0.5281755
000130 08 d9 23 bf 06 ee 16 bf b4 ec 15 bf 64 b9 ca be
       -0.6400304 -0.58956945 -0.58564305 -0.39594567
000140 81 eb 10 bf 06 96 08 bf 86 67 5b be e9 cb 78 be
       -0.5660935 -0.5335392 -0.2142621 -0.24296536
000150 1c 2e db be 46 25 50 bf ed 89 c9 be 96 e4 4b bf
       -0.42808616 -0.81306875 -0.39363042 -0.7964567
000160 3a 0c ce be 05 7a 2c be c7 39 b9 be 4c 5f e3 be
       -0.40243703 -0.16843422 -0.36176893 -0.44408643
000170 13 af 09 bf 51 76 8a be 60 50 0d bf 71 d4 10 bf
       -0.5378277 -0.27043393 -0.5520077 -0.5657416
000180 48 93 00 bf 86 c8 2d bf c8 55 56 be aa 8f 66 be
       -0.50224733 -0.678841 -0.2093116 -0.22515741
000190 c8 51 31 bf 14 c8 36 bf 9e f3 65 bf 97 ad 13 bf
       -0.69265413 -0.71399045 -0.89824855 -0.5768675
0001a0 ef 9c d3 be 5d 69 8e be 2b 15 42 bf 54 31 22 bf
       -0.41330668 -0.2781476 -0.7581355 -0.6335652
0001b0 90 e1 06 bf c2 3c aa be 6f 8a df be 6d c3 1a bf
       -0.5268793 -0.3324948 -0.43660304 -0.60454446
0001c0 61 76 60 bf ff 31 23 bf 6f 74 f6 be 06 41 36 bf
       -0.8768063 -0.63748163 -0.48135707 -0.7119297
0001d0 fa f9 8d be a3 e5 23 bf 3d f8 fb be 0a 4f fe be
       -0.2772978 -0.6402227 -0.49212828 -0.49669677
0001e0 86 6d 3c bf 62 42 00 bf da 01 3d bf e0 1e fa be
       -0.7360462 -0.5010129 -0.7383095 -0.4885168
0001f0 16 7b 2d bf 80 86 2a bf 7a 82 17 bf fc 33 69 bf
       -0.6776594 -0.6661148 -0.59183466 -0.91094947
000200 74 4c 8b 3f 5d dc 8f 3f e3 dd 8c 3f e9 7e c3 3f
       1.0882707 1.1239125 1.1005214 1.5273105
000210 1f e9 aa 3f 3a 31 95 3f 7f d4 9e 3f be de 99 3f
       1.3352393 1.1655648 1.2408599 1.20211
000220 01 74 a3 3f fb c8 a6 3f 3d c0 98 3f f1 1c 8d 3f
       1.2769777 1.3030084 1.1933666 1.1024457
000230 08 40 ae 3f d1 f7 97 3f 8b e3 a0 3f a5 10 b3 3f
       1.3613291 1.1872503 1.2569441 1.3989455
000240 0a 5d 93 3f ef 98 68 3f c8 aa bb 3f 6e 99 80 3f
       1.1512768 0.9085836 1.4661493 1.0046823
000250 30 93 a8 3f 50 20 97 3f 77 9c b2 3f 74 eb 8d 3f
       1.3169918 1.1806736 1.3953999 1.108748
000260 2a 4f 9d 3f 28 e6 a2 3f d2 ff a7 3f 47 82 a6 3f
       1.2289784 1.2726488 1.3124945 1.3008507
000270 77 ce b1 3f 76 ea ba 3f 6a 83 8a 3f b1 ac a9 3f
       1.3891133 1.4602802 1.0821354 1.3255826
000280 5d b8 a4 3f 21 f5 6c 3f 85 a8 89 3f ec 2f 3c 3f
       1.2868763 0.9256154 1.0754553 0.7351062
000290 54 60 83 3f c0 d8 97 3f 0d 14 9c 3f 86 a4 a0 3f
       1.0263772 1.1863022 1.2193619 1.2550209
0002a0 b6 91 8e 3f ad 2e a2 3f f2 76 97 3f 0d 1c a3 3f
       1.1138217 1.2670494 1.1833174 1.2742935
0002b0 ed 6c ad 3f 56 cd c9 3f d1 63 b6 3f 28 e9 c5 3f
       1.3548867 1.5765789 1.4249212 1.5461779
0002c0 25 87 99 3f 55 a2 96 3f 44 41 49 3f c3 08 83 3f
       1.1994368 1.176829 0.7861521 1.0237049
0002d0 b3 39 9f 3f 69 a2 9f 3f 1c 45 89 3f 1d cd 9a 3f
       1.2439483 1.2471439 1.0724216 1.2093846
0002e0 f7 0c 87 3f f6 16 d0 3f 3a 53 87 3f 13 55 8e 3f
       1.0550832 1.6257007 1.0572274 1.1119713
0002f0 5e 9b a5 3f 5d 87 99 3f 37 91 9e 3f 0f ff 8a 3f
       1.2938039 1.1994435 1.2388066 1.0859088
000300 fd eb 94 3f 2a 30 a4 3f fa 43 98 3f 98 0e b5 3f
       1.1634518 1.2827199 1.1895745 1.4145079
000310 d2 24 91 3f d9 ad 89 3f e6 b3 d6 3f 6d 23 ad 3f
       1.1339362 1.0756179 1.6773651 1.3526436
000320 57 47 8a 3f b0 ac b4 3f e3 10 8d 3f 1e 79 b3 3f
       1.0803021 1.41152 1.1020778 1.4021337
000330 47 f2 b4 3f b6 8c 98 3f 64 25 a7 3f bb 50 a6 3f
       1.4136437 1.1917942 1.3058286 1.2993387
000340 06 8c 60 3f 5e a8 a8 3f c2 5b a0 3f a0 72 92 3f
       0.8771366 1.3176382 1.2528002 1.1441231
000350 f7 65 76 3f c6 fe cf 3f 16 27 c7 3f c9 80 a7 3f
       0.96249336 1.6249626 1.5558803 1.3086177
000360 5c bb ae 3f 0d cb 97 3f a1 6b 9d 3f b2 da 9f 3f
       1.3650928 1.1858841 1.2298471 1.2488616
000370 4d 54 c9 3f 2b 6f a9 3f cd ca a8 3f 69 73 9f 3f
       1.5728852 1.3237051 1.318689 1.2457095
000380 33 2d 96 3f 8c 46 c4 3f e7 8a 9d 3f de 8e a5 3f
       1.1732544 1.5334029 1.2308015 1.2934225
000390 2f 95 af 3f d1 d6 b0 3f f6 cb a4 3f 31 19 95 3f
       1.3717402 1.3815557 1.2874744 1.1648313
0003a0 84 d3 5d 3f ee 9a 99 3f 11 5f 82 3f 9d f1 ac 3f
       0.8665087 1.2000406 1.0185262 1.3511235
0003b0 1e 42 98 3f 6c 89 bb 3f 2a 9f ae 3f 98 32 87 3f
       1.1895177 1.4651313 1.3642323 1.0562315
0003c0 95 f4 a2 3f fa 17 b9 3f 06 4e a1 3f c6 72 a6 3f
       1.273089 1.4460442 1.2601936 1.3003776
0003d0 71 7e 7d 3f ee e6 bd 3f 03 14 86 3f ce c9 99 3f
       0.9902106 1.4836099 1.0474857 1.2014711
0003e0 fd 48 9a 3f a3 a7 95 3f 2a d1 61 3f 48 9d a9 3f
       1.2053524 1.1691784 0.88209784 1.3251123
0003f0 4e a2 bc 3f 1e 9d ac 3f 2e 36 8a 3f 5c a9 a3 3f
       1.4737031 1.3485448 1.0797784 1.2786059
